…
            "Downloading https://ultralytics.com/assets/Arial.ttf to /root/.config/Ultralytics/Arial.ttf...\n",
            "100% 755k/755k [00:00<00:00, 10.5MB/s]\n",
            "Downloading https://github.com/ultralytics/yolov5/releases/download/v7.0/yolov5m.pt to yolov5m.pt...\n",
            "100% 40.8M/40.8M [00:00<00:00, 151MB/s]\n",
            "\n",
            "Overriding model.yaml nc=80 with nc=3\n",
            "\n",
            "                 from  n    params  module                                  arguments                     \n",
            "  0                -1  1      5280  models.common.Conv                      [3, 48, 6, 2, 2]              \n",
            "  1                -1  1     41664  models.common.Conv                      [48, 96, 3, 2]                \n",
            "  2                -1  2     65280  models.common.C3                        [96, 96, 2]                   \n",
            "  3                -1  1    166272  models.common.Conv                      [96, 192, 3, 2]               \n",
            "  4                -1  4    444672  models.common.C3                        [192, 192, 4]                 \n",
            "  5                -1  1    664320  models.common.Conv                      [192, 384, 3, 2]              \n",
            "  6                -1  6   2512896  models.common.C3                        [384, 384, 6]                 \n",
            "  7                -1  1   2655744  models.common.Conv                      [384, 768, 3, 2]              \n",
            "  8                -1  2   4134912  models.common.C3                        [768, 768, 2]                 \n",
            "  9                -1  1   1476864  models.common.SPPF                      [768, 768, 5]                 \n",
            " 10                -1  1    295680  models.common.Conv                      [768, 384, 1, 1]              \n",
            " 11                -1  1         0  torch.nn.modules.upsampling.Upsample    [None, 2, 'nearest']          \n",
            " 12           [-1, 6]  1         0  models.common.Concat                    [1]                           \n",
            " 13                -1  2   1182720  models.common.C3                        [768, 384, 2, False]          \n",
            " 14                -1  1     74112  models.common.Conv                      [384, 192, 1, 1]              \n",
            " 15                -1  1         0  torch.nn.modules.upsampling.Upsample    [None, 2, 'nearest']          \n",
            " 16           [-1, 4]  1         0  models.common.Concat                    [1]                           \n",
            " 17                -1  2    296448  models.common.C3                        [384, 192, 2, False]          \n",
            " 18                -1  1    332160  models.common.Conv                      [192, 192, 3, 2]              \n",
            " 19          [-1, 14]  1         0  models.common.Concat                    [1]                           \n",
            " 20                -1  2   1035264  models.common.C3                        [384, 384, 2, False]          \n",
            " 21                -1  1   1327872  models.common.Conv                      [384, 384, 3, 2]              \n",
            " 22          [-1, 10]  1         0  models.common.Concat                    [1]                           \n",
            " 23                -1  2   4134912  models.common.C3                        [768, 768, 2, False]          \n",
            " 24      [17, 20, 23]  1     32328  models.yolo.Detect                      [3, [[10, 13, 16, 30, 33, 23], [30, 61, 62, 45, 59, 119], [116, 90, 156, 198, 373, 326]], [192, 384, 768]]\n",
            "Model summary: 291 layers, 20879400 parameters, 20879400 gradients, 48.2 GFLOPs\n",
            "\n",
            "Transferred 475/481 items from yolov5m.pt\n",
…
